models/nn_seq_smoke.pt (torch, 30737 bytes, 6 tensors)

gru.weight_ih_l0 f4 [96, 37]
0.15029666 0.15896158 -0.025592998 0.092314914 -0.108611666 0.022626014 -0.12368831 0.0365436
0.06648066 -0.20603564 0.07850993 -0.039444994 0.059468582 -0.045187317 0.004615228 0.009682862
0.067151204 0.100825675 -0.04359615 0.00752862 -0.10065666 -0.06847595 -0.043685544 0.12571117
-0.08312276 -0.056175224 -0.1258898 -0.17394765 -0.05043721 -0.24561815 0.22435443 -0.22210316
0.0659548 -0.04166964 -0.12804882 0.03578962 -0.07483662 0.14797236 0.024589665 -0.050390735
0.043304566 -0.032883283 0.020908285 0.15125786 0.14449708 -0.06369634 0.08959813 0.025324916
0.10682819 -0.07705795 -0.16722558 -0.07223031 -0.18814261 0.140114 0.04303792 0.1272012
0.09398147 0.030049026 0.15022364 -0.06553421 -0.018490477 -0.1654129 0.025294885 -0.06939281
0.049077045 -0.012733372 0.10729141 -0.07803368 -0.09279041 -0.07962724 0.19227126 0.047097713
0.11458681 -0.17405494 -0.23144136 -0.1944304 -0.17508754 0.103949554 0.016271442 0.17423801
-0.11732167 -0.093440205 0.086696744 -0.06287677 0.08630001 -0.08597465 0.09842658 -0.19091493
-0.047074728 0.03154906 0.12176483 -0.12875167 0.07810595 0.08161918 -0.1171841 -0.027072389
0.16667266 -0.03732886 -0.10758269 -0.17698891 -0.030034358 0.025185835 -0.005697751 -0.11227134
-0.065607816 -0.16664028 -0.15870039 -0.101101734 -0.11931435 -0.021579374 0.28908738 -0.02581318
-0.004736473 -0.2239074 -0.0893823 -0.14556079 0.08197241 -0.23419462 -0.028328095 -0.1574176
-0.06451054 -0.1447352 -0.1006066 -0.11469986 -0.17025375 -0.14730707 -0.12646183 -0.118957385
0.12033655 -0.026602766 0.21458256 0.017226458 -0.1991025 0.16744396 -0.030849628 -0.06928638
-0.20660514 -0.16939493 0.025027063 0.0069231074 0.051351435 -0.21654248 0.047526617 -0.18462631
-0.074361436 -0.016635016 0.09631008 0.25484028 0.2350043 -0.06574233 0.118484 -0.00670447
0.0006610451 -0.1641061 0.14247487 -0.047453392 0.12208665 0.06081009 0.054730393 -0.077906124
0.23476326 0.117525004 0.06223401 -0.2191174 0.034285728 0.012364152 -0.13403593 0.16839603
0.026653012 -0.12243615 -0.015290283 0.0017352491 0.015364628 -0.0941222 -0.025533611 0.021378107
-0.050623637 0.10103505 0.13910213 -0.10595148 0.106241114 0.16068922 0.07158635 0.0020729513
0.05944366 0.1004149 0.07328349 -0.023488062 -0.0858614 -0.042030822 -0.074218966 -0.079708114
0.05028857 0.078211464 -0.08003401 -0.07898841 -0.032699518 -0.06425897 0.017414197 0.009355802
-0.18170588 -0.054066088 0.14865217 0.06292357 -0.024388844 -0.091394156 -0.07529499 -0.12850215
-0.10745784 0.056500826 0.114290364 0.048454013 -0.1872895 -0.1588869 -0.085549764 0.1376552
-0.02758703 -0.060145646 0.059336293 -0.062296182 -0.10795539 0.13534974 -0.023039885 0.021681594
-0.11833759 0.1362041 0.16107717 0.038727276 -0.12409953 -0.1276698 -0.20773855 0.053705167
0.08468624 0.20593502 0.14325002 0.09772489 0.05930969 -0.13986254 -0.12998925 -0.16908832
0.0729525 -0.09769809 -0.028925179 -0.061584007 -0.057297956 -0.10954977 -0.16162525 0.107223704
-0.031028045 0.1253508 -0.016468618 -0.06740409 -0.08255583 -0.014781237 0.011518155 -0.10402175
00000000: 5ee7 193e d3c6 223e 68a8 d1bc 9a0f bd3d
00000010: cb6f debd 315a b93c 4c50 fdbd beae 153d
00000020: 0327 883d 02fb 52be d0c9 a03d 1391 21bd
00000030: 5495 733d 5616 39bd 573b 973b dea4 1e3c
00000040: 9286 893d b17d ce3d e091 32bd a4b2 f63b
00000050: 1425 cebd 1e3d 8cbd 9def 32bd 6eba 003e
00000060: 443c aabd fe17 66bd 41e9 00be 551f 32be
00000070: 3f97 4ebd 5383 7bbe 2bbd 653e 036f 63be
00000080: 4f13 873d c9ad 2abd 3b1f 03be 2398 123d
00000090: f143 99bd 1186 173e 4470 c93c 8466 4ebd
000000a0: 2160 313d 9fb0 06bd da47 ab3c 57e3 1a3e
000000b0: 0bf7 133e 3a73 82bd 397f b73d 3376 cf3c
000000c0: bdc8 da3d 8fd0 9dbd 2f3d 2bbe 7ced 93bd
000000d0: 75a8 40be 0b7a 0f3e 8848 303d 0841 023e
000000e0: 5b79 c03d 6029 f63c 3ad4 193e cd36 86bd
000000f0: 5779 97bc 0062 29be 3837 cf3c d11d 8ebd
00000100: 0305 493d a29f 50bc 99bb db3d 1fd0 9fbd
00000110: e608 bebd 9b13 a3bd c2e2 443e 88e9 403d
00000120: 7dac ea3d 753b 32be f7fe 6cbe c318 47be
00000130: 264a 33be 81e3 d43d b04b 853c 736b 323e
00000140: 5846 f0bd 945d bfbd 108e b13d 89c5 80bd
00000150: 0fbe b03d 7a13 b0bd e093 c93d 347f 43be
00000160: 6ed1 40bd 9639 013d d75f f93d 7ad7 03be
00000170: 03f6 9f3d f527 a73d 38fe efbd eac6 ddbc
00000180: 3dac 2a3e 26e6 18bd 5054 dcbd 953c 35be
00000190: 9d0a f6bc 8652 ce3c 33b4 babb 84ee e5bd
000001a0: 645d 86bd c0a3 2abe 5b82 22be 6d0e cfbd
000001b0: 155b f4bd 3ac7 b0bc 4303 943e 2976 d3bc
000001c0: 6a34 9bbb fb47 65be 110e b7bd e30d 15be
000001d0: 27e1 a73d b7d0 6fbe 5210 e8bc 1432 21be
000001e0: 1a1e 84bd 7735 14be d50a cebd c3e7 eabd
000001f0: 0057 2ebe aad7 16be 367f 01be ee9f f3bd
00000200: 0273 f63d 0bee d9bc 88bb 5b3e 801e 8d3c
00000210: 87e1 4bbe 6e76 2b3e 5cb8 fcbc 05e6 8dbd
00000220: 4c90 53be dd75 2dbe 8e05 cd3c 3cdb e23b
00000230: e255 523d 50bd 5dbe 45ab 423d ae0e 3dbe
00000240: cf4a 98bd 2846 88bc 383e c53d 6d7a 823e
00000250: f8a4 703e eaa3 86bd bda7 f23d 2cb1 dbbb
00000260: fc49 2d3a 6e0b 28be efe4 113e 7d5e 42bd
00000270: 9108 fa3d 0014 793d fa2c 603d 3f8d 9fbd
00000280: c865 703e f3b0 f03d 17e9 7e3d 5060 60be
00000290: 316f 0c3d 0393 4a3c b740 09be 0270 2c3e
000002a0: 6b57 da3c cebf fabd 1884 7abc 4c71 e33a
000002b0: ecbb 7b3c 24c3 c0bd dd2b d1bc 2421 af3c
000002c0: bb5a 4fbd 77eb ce3d ca70 0e3e 17fd d8bd
000002d0: f194 d93d b78b 243e dd9b 923d 5ada 073b
000002e0: 327b 733d 54a6 cd3d a815 963d 096a c0bc
000002f0: 1ad8 afbd 8328 2cbd 1d00 98bd 023e a3bd
00000300: 63fb 4d3d 552d a03d dfe8 a3bd adc4 a1bd
00000310: eeef 05bd 359a 83bd 38a8 8e3c 1449 193c
00000320: 1b11 3abe 6774 5dbd 4638 183e 13de 803d
00000330: 1dcb c7bc dc2c bbbd 4234 9abd 1196 03be
00000340: db12 dcbd 696d 673d 1111 ea3d b777 463d
00000350: d2c8 3fbe 3fb3 22be b734 afbd 7cf5 0c3e
00000360: 32fe e1bc 485b 76bd 9d0a 733d 482a 7fbd
00000370: b717 ddbd 1f99 0a3e 24be bcbc 999d b13c
00000380: fa5a f2bd 1679 0b3e 6af1 243e 7ea0 1e3d
00000390: e527 febd dfbb 02be 6ab9 54be f3f9 5b3d
000003a0: fb6f ad3d a1e0 523e 22b0 123e fd23 c83d
000003b0: b8ee 723d 2038 0fbe e71b 05be 7d25 2dbe
000003c0: 1f68 953d f015 c8bd 7ff4 ecbc 833f 7cbd
000003d0: 43b1 6abd a15b e0bd 1781 25be 1a98 db3d
000003e0: 872e febc f65b 003e 32e9 86bc 280b 8abd
000003f0: 0813 a9bd 002d 72bc a5b6 3c3c 5b09 d5bd

gru.weight_hh_l0 f4 [96, 32]
-0.22645533 -0.24618335 -0.19508466 -0.04955574 -0.19854786 4.2091764e-05 -0.07582084 -0.023416702
0.01708957 0.019758977 0.22690749 0.061326392 -0.20678236 -0.15567836 -0.23583147 0.17567979
0.20657183 0.0369006 -0.10088964 0.0025571608 0.24714895 -0.05552798 -0.14947121 0.16886245
-0.25941855 -0.08698596 -0.020021547 0.037069965 -0.014424937 -0.12927198 0.004763506 0.072723135
-0.17348018 -0.054789558 -0.17414708 -0.07264413 0.020759508 0.15497504 0.13198663 -0.10507608
-0.06674663 0.026559163 0.04620347 -0.107805 -0.12206706 0.12313387 -0.18343715 -0.09095508
0.18619923 -0.15271455 0.17738713 -0.049530063 0.02205317 -0.03907511 0.17923118 0.16980924
-0.043943603 -0.076063715 -0.12422409 -0.13640586 -0.048375916 0.14924408 -0.075582944 0.077750415
-0.05691265 -0.007608031 -0.21884327 0.030426575 -0.24937415 0.065485924 0.16356367 0.0720516
0.11793455 0.1593327 0.0079354765 -0.1654945 -0.14220184 0.02816291 0.12588833 -0.0458507
0.11257236 -0.089712255 0.2569596 0.052758045 0.14904276 0.010767308 0.20785192 0.2244069
-0.021912307 -0.049923033 -0.04404408 -0.15360732 -0.13547607 0.17760852 0.04216586 0.046427693
0.08384319 0.13835122 -0.014974668 -0.13124314 -0.0028990372 -0.16038524 0.16563195 -0.086356044
-0.01673872 -0.14176326 0.1757739 -0.052039675 0.1867361 -0.10367874 -0.22361325 -0.024977846
-0.049153686 -0.039927505 0.003695118 0.048435386 0.13525791 0.005171826 -0.16270319 -0.12177941
0.00017051812 -0.17479558 0.05744136 -0.16227226 0.031222919 -0.0020526773 -0.00013206247 -0.06369286
-0.11754817 -0.04703044 -0.046748184 0.0929048 0.012324311 -0.016513066 0.23104344 0.10166168
-0.055573538 -0.14792877 0.07168026 0.058583625 -0.13697587 -0.15043324 0.03291579 0.15354854
-0.17362839 -0.14305465 0.020227386 -0.11755207 -0.19029473 0.09947608 0.1808126 -0.13098103
0.02419865 -0.18764223 0.07829959 -0.16842973 -0.098425224 -0.057401683 -0.01700621 0.08440708
-0.179828 -0.050350264 0.07634327 -0.073426425 -0.06482126 0.043191895 0.084701635 0.20222321
0.02909508 -0.067955926 0.25010046 0.036865745 -0.01280177 0.049876295 -0.08591301 0.21264555
-0.04468658 0.090836465 0.22947973 -0.05788618 -0.15038027 -0.0979481 -0.046344228 0.1346447
0.00018510013 -0.097261384 0.07552285 -0.06747032 -0.14877689 -0.07480315 0.014538483 -0.26139066
-0.09565754 0.073852055 -0.20435245 0.012645342 0.048594054 0.09405284 0.21332932 -0.15903427
-0.14725184 0.03938907 -0.028132858 0.028069496 -0.03372743 -0.24266203 0.084912136 0.14736374
-0.071550116 -0.21087024 0.1347354 0.11908611 0.046789546 -0.016183032 0.22826228 -0.12798853
0.17901854 -0.21949613 -0.0485783 0.11725212 -0.13906018 0.11983811 -0.09146859 0.029661732
0.0585444 0.028208625 0.039404955 -0.107144535 -0.11693033 0.09457051 0.19406281 -0.0039642453
0.07486618 -0.1515766 -0.051017124 0.0144385705 -0.21204658 -0.2692479 0.018371329 0.08438981
0.13579005 -0.06775351 -0.035488397 -0.12204988 0.15061463 -0.057078637 0.1300657 0.15834878
0.08820867 -0.21379684 -0.08997643 -0.13337483 0.13722946 -0.08271031 -0.26675147 -0.18906488
00000000: e8e3 67be 7d17 7cbe 46c4 47be f6fa 4abd
00000010: 2150 4bbe b08b 3038 f547 9bbd 62d4 bfbc
00000020: 6dff 8b3c 94dd a13c 705a 683e 6231 7b3d
00000030: c1be 53be 266a 1fbe ce7d 71be 67e5 333e
00000040: 9187 533e 1525 173d 3a9f cebd 0a96 273b
00000050: 9d14 7d3e 4f71 63bd fb0e 19be 47ea 2c3e
00000060: 82d2 84be b225 b2bd 3a04 a4bc add6 173d
00000070: 9256 6cbc e05f 04be 2f17 9c3b deef 943d
00000080: caa4 31be 046b 60bd 9d53 32be 72c6 94bd
00000090: d80f aa3c c7b1 1e3e 8127 073e 2132 d7bd
000000a0: 75b2 88bd 9a92 d93c da3f 3d3d dec8 dcbd
000000b0: 4bfe f9bd 9c2d fc3d f3d6 3bbe a846 babd
000000c0: 03ab 3e3e 3461 1cbe f9a4 353e 09e0 4abd
000000d0: d9a8 b43c 390d 20bd 6188 373e 79e2 2d3e
000000e0: 35fe 33bd 4bc7 9bbd 3369 febd faad 0bbe
000000f0: d325 46bd 71d3 183e 3bcb 9abd 9c3b 9f3d
00000100: 3d1d 69bd ca4c f9bb 7318 60be 2741 f93c
00000110: f05b 7fbe 7c1d 863d 3c7d 273e ca8f 933d
00000120: ab87 f13d 1c28 233e cd03 023c 6477 29be
00000130: 5c9d 11be e7b5 e63c dfe8 003e f2cd 3bbd
00000140: 568c e63d 0fbb b7bd 3590 833e d218 583d
00000150: aa9e 183e 5d69 303c 22d7 543e ecca 653e
00000160: 7081 b3bc 187c 4cbd 9167 34bd 3d4b 1dbe
00000170: 3dba 0abe 02df 353e 1cb6 2c3d f72a 3e3d
00000180: fab5 ab3d f1ab 0d3e 4f58 75bc 9a64 06be
00000190: c6fd 3dbb 073c 24be 6c9b 293e 70db b0bd
000001a0: a41f 89bc 632a 11be 13fe 333e 8e27 55bd
000001b0: c037 3f3e 8555 d4bd dffa 64be 579e ccbc
000001c0: 6055 49bd 068b 23bd cb29 723b 2f64 463d
000001d0: 0d81 0a3e 6c78 a93b aa9b 26be 7c67 f9bd
000001e0: 1ccd 3239 9dfd 32be a247 6b3d b32a 26be
000001f0: 35c7 ff3c 3686 06bb 407a 0ab9 6771 82bd
00000200: 18bd f0bd fea2 40bd 067b 3fbd df44 be3d
00000210: e8eb 493c 6946 87bc a796 6c3e 0034 d03d
00000220: 14a1 63bd a47a 17be 1acd 923d 62f5 6f3d
00000230: 6743 0cbe 2c0b 1abe b5d2 063d d43b 1d3e
00000240: a4cb 31be eb7c 12be e7b3 a53c 24bf f0bd
00000250: 9fdc 42be 1dba cb3d f026 393e e41f 06be
00000260: 3f3c c63c 4925 40be 895b a03d d878 2cbe
00000270: 2a93 c9bd 071e 6bbd 9b50 8bbc 9fdd ac3d
00000280: d524 38be 143c 4ebd dc59 9c3d 9860 96bd
00000290: 02c1 84bd fce9 303d 0d78 ad3d 9a13 4f3e
000002a0: ce58 ee3c 7a2c 8bbd 2b0d 803e 8900 173d
000002b0: 84be 51bc 164b 4c3d 29f3 afbd c1bf 593e
000002c0: 4609 37bd 7808 ba3d bcfc 6a3e 0f1a 6dbd
000002d0: 49fd 19be 0399 c8bd 72d3 3dbd 4de0 093e
000002e0: 7017 4239 fa30 c7bd b9ab 9a3d e12d 8abd
000002f0: f858 18be 6532 99bd d132 6e3c ffd4 85be
00000300: 1ae8 c3bd bf3f 973d c541 51be 692e 4f3c
00000310: 8f0a 473d c69e c03d 0073 5a3e e1d9 22be
00000320: 30c9 16be 6f56 213d e176 e6bc 00f2 e53c
00000330: c625 0abd 657c 78be 6ae6 ad3d 85e6 163e
00000340: de88 92bd 5eee 57be 14f8 093e 6be3 f33d
00000350: 65a6 3f3d 4792 84bc 96bd 693e 6d0f 03be
00000360: a350 373e 98c3 60be 0afa 46bd e121 f03d
00000370: cb65 0ebe af6d f53d e253 bbbd 29fd f23c
00000380: 41cc 6f3d c615 e73c 1767 213d 986e dbbd
00000390: 2b79 efbd 2fae c13d 67b8 463e 80e6 81bb
000003a0: 7153 993d e536 1bbe 55f7 50bd c18f 6c3c
000003b0: bd22 59be dcda 89be 787f 963c 91d4 ac3d
000003c0: 8c0c 0b3e 5ac2 8abd 485c 11bd 4af5 f9bd
000003d0: b93a 1a3e 4acb 69bd f12f 053e 2f26 223e
000003e0: bfa6 b43d 8fed 5abe 9045 b8bd 6993 08be
000003f0: e185 0c3e 0664 a9bd a693 88be 399a 41be

gru.bias_ih_l0 f4 [96]
0.08126416 0.19019794 -0.02258294 -0.10042426 0.10869355 0.18806392 -0.0024156135 0.13717678
0.248802 0.09885144 -0.03377589 0.19238448 0.22060932 0.06942299 0.1645412 0.122283444
-0.007690854 0.0887798 -0.10928436 0.16286021 0.018517787 -0.052681718 0.06289661 0.03264357
-0.031397983 0.06410552 0.08633765 0.1458937 0.0988879 -0.010804413 0.096293196 -0.00444199
0.20154403 0.014951572 0.1578249 -0.13545029 0.15161565 0.016130824 -0.21935964 0.07461553
-0.017461143 -0.035664737 0.076648206 0.20196405 0.068616495 -0.07526757 0.1422201 0.10976429
0.05751109 -0.0845754 -0.02218707 0.093132645 0.043127574 0.046527326 -0.09115966 -0.011079174
0.06616611 -0.015009502 -0.20620456 0.12274704 0.110429674 -0.102917254 -0.24346696 0.0837681
-0.14774898 -0.1308409 -0.12203147 -0.08423271 -0.14909017 0.12664461 0.18031625 0.12882012
-0.14171067 0.04535814 0.20885468 -0.08254854 -0.19919541 -0.061279707 0.03054182 0.049015943
0.03927806 -0.10183121 0.20260845 0.2083067 -0.1907588 0.06798149 0.14223243 0.14931577
-0.1860427 -0.18192427 0.15324059 -0.02759795 -0.12144836 0.048624776 0.17388082 -0.13294624
00000000: d36d a63d 40c3 423e dcff b8bc 3cab cdbd
00000010: b99a de3d d493 403e 454f 1ebb 1278 0c3e
00000020: f4c5 7e3e a072 ca3d 9658 0abd 7000 453e
00000030: 69e7 613e a42d 8e3d 7d7d 283e be6f fa3d
00000040: 8f03 fcbb 2fd2 b53d 7bd0 dfbd d4c4 263e
00000050: 9db2 973c c9c8 57bd f0cf 803d 44b5 053d
00000060: 2c9b 00bd c149 833d cbd1 b03d 2865 153e
00000070: bd85 ca3d fe04 31bc 5e35 c53d 1d8e 91bb
00000080: 8f61 4e3e 70f7 743c da9c 213e 7bb3 0abe
00000090: 2241 1b3e ca24 843c d09f 60be 07d0 983d
000000a0: ac0a 8fbc 3015 12bd bcf9 9c3d aacf 4e3e
000000b0: ce86 8c3d e225 9abd 25a2 113e 1acc e03d
000000c0: c090 6b3d de35 adbd a9c1 b5bc 54bc be3d
000000d0: 8aa6 303d 7093 3e3d eab1 babd 6c85 35bc
000000e0: 1982 873d 6aea 75bc 4a27 53be cd62 fb3d
000000f0: f428 e23d 48c6 d2bd 674f 79be 9c8e ab3d
00000100: 824b 17be 28fb 05be a3eb f9bd 3382 acbd
00000110: 18ab 18be 20af 013e d3a4 383e 6ce9 033e
00000120: 9a1c 11be 75c9 393d 00de 553e 350f a9bd
00000130: e2f9 4bbe 6e00 7bbd d732 fa3c f1c4 483d
00000140: 08e2 203d e28c d0bd 9778 4f3e 5a4e 553e
00000150: 4656 43be e139 8b3d 61a5 113e 3ce6 183e
00000160: fa81 3ebe 5b4a 3abe 1aeb 1c3e 1915 e2bc
00000170: ebb9 f8bd c62a 473d d00d 323e 0f23 08be

gru.bias_hh_l0 f4 [96]
0.22037162 -0.00040797144 0.1459413 0.09375885 -0.06049697 0.07581454 0.07130163 -0.08336133
0.072271496 0.09809807 0.1610589 0.12937337 -0.08868988 0.04763657 0.2195699 0.08456376
0.16253473 0.12445824 0.1780662 0.0022319674 0.28816026 0.13501297 0.051224124 0.24040793
0.16811624 -0.017429683 0.09227865 0.21880141 0.118683524 -0.04306386 -0.05757872 -0.013842569
0.1502759 0.008387005 -0.11041676 -0.014180751 0.075760044 -0.17135559 0.10352927 -0.11192607
-0.085512385 -0.049871307 -0.0056619104 0.12731282 0.07897682 0.1890097 -0.049498435 0.09680873
0.09801527 -0.015853407 -0.07855156 -0.09712051 -0.15546595 -0.2579898 -0.013329444 0.013196688
0.19402394 0.1323165 -0.016019829 0.11718312 0.040778518 0.14566167 0.042399567 0.05025387
-0.13668174 0.01158141 -0.1677595 -0.08414604 -0.050790053 0.072594434 -0.08623368 0.15537526
-0.15575922 -0.071314536 0.023934757 -0.10524794 0.111052 -0.23812802 -0.016106129 0.2560272
-0.025021695 -0.03774867 0.026068438 0.11233047 0.076922014 -0.1858256 0.12728742 0.26579365
-0.07562759 -0.20930265 -0.02874881 -0.03768515 -0.03308785 0.07337553 -0.037997484 -0.18071719
00000000: 19a9 613e 00e5 d5b9 a371 153e a404 c03d
00000010: accb 77bd a744 9b3d 9706 923d 58b9 aabd
00000020: 1403 943d a4e7 c83d a0ec 243e 747a 043e
00000030: 0aa3 b5bd 901e 433d efd6 603e c42f ad3d
00000040: 816f 263e f6e3 fe3d fc56 363e 3346 123b
00000050: be89 933e d740 0a3e 63d0 513d 7f2d 763e
00000060: aa26 2c3e b2c8 8ebc 97fc bc3d 7a0d 603e
00000070: 5910 f33d bb63 30bd aad7 6bbd f1cb 62bc
00000080: ede1 193e a669 093c 2f22 e2bd 6156 68bc
00000090: 1528 9b3d d777 2fbe 2707 d43d 7f39 e5bd
000000a0: 1e21 afbd db45 4cbd 8c87 b9bb 4b5e 023e
000000b0: 99be a13d c28b 413e dfbe 4abd a843 c63d
000000c0: 3bbc c83d 01df 81bc a4df a0bd 1ee7 c6bd
000000d0: 7732 1fbe 3d17 84be be63 5abc ec36 583c
000000e0: 36ae 463e fa7d 073e 043c 83bc b4fd ef3d
000000f0: 6007 273d 5528 153e 2bab 2d3d 01d7 4d3d
00000100: 4cf6 0bbe f4bf 3d3c 25c9 2bbe c254 acbd
00000110: 3b09 50bd 64ac 943d 499b b0bd b11a 1f3e
00000120: 587f 1fbe 5b0d 92bd d312 c43c 3b8c d7bd
00000130: 3b6f e33d d5d7 73be 00f1 83bc ff15 833e
00000140: 4cfa ccbc 599e 1abd 7a8d d53c 840d e63d
00000150: 4a89 9d3d 1149 3ebe a257 023e 1b16 883e
00000160: a3e2 9abd 6f53 56be a082 ebbc be5b 1abd
00000170: 2087 07bd e945 963d 40a3 1bbd ed0d 39be

head.weight f4 [3, 32]
0.22076924 -0.007547355 0.041367754 0.068802275 0.0031053058 -0.12207393 -0.15638757 -0.25709543
0.18387766 0.011665231 -0.18861677 0.0310311 0.13760267 0.26223204 0.25348827 -0.090923786
-0.2610236 0.07976327 -0.106553815 0.06913586 -0.10231794 -0.25538772 -0.012686634 -0.14531821
0.1693111 0.15216337 0.13801298 0.11877619 -0.1225076 -0.22250132 0.27161726 0.25907394
0.014099682 0.24483706 -0.0007178806 -0.14845599 -0.058022708 -0.1735278 0.18834798 -0.21112904
-0.08976841 0.28132874 -0.15976965 0.09228603 0.1872684 0.15115556 0.13053615 0.057320125
-0.0015156987 -0.039685752 -0.14065671 -0.046623453 -0.24300173 -0.12834178 0.13972566 -0.024148427
0.10422194 0.013860464 0.21398923 -0.16446741 -0.06552555 -0.14583033 0.22835818 -0.11551643
-0.07482771 -0.0033094902 -0.25421274 -0.25789148 -0.1185239 -0.1529068 0.2235172 -0.11306995
-0.2154391 0.1094101 -0.0005033092 -0.13107258 0.22137003 -0.25561523 -0.12377253 0.14836675
0.12285545 -0.27695706 0.16440429 0.27217814 -0.12737952 -0.21523581 0.19423376 0.20042062
-0.117443785 -0.24548988 0.09724426 -0.22485612 -0.25351056 0.15827362 0.2133374 -0.035433162
00000000: 5511 623e cd4f f7bb 3c71 293d 35e8 8c3d
00000010: 6382 4b3b e601 fabd 1024 20be 03a2 83be
00000020: 6d4a 3c3e 861f 3f3c c124 41be ef34 fe3c
00000030: b7e7 0c3e 4743 863e 37c9 813e 4036 babd
00000040: e3a4 85be ed5a a33d e338 dabd 1a97 8d3d
00000050: 118c d1bd 2ec2 82be 9adb 4fbc 4cce 14be
00000060: e45f 2d3e b7d0 1b3e 4653 0d3e ee40 f33d
00000070: 44e5 fabd 63d7 63be 6b11 8b3e 57a5 843e
00000080: 5a02 673c 91b6 7a3e 2730 3cba d904 18be
00000090: 38a9 6dbd 46b1 31be 4bde 403e 3632 58be
000000a0: 80d8 b7bd 520a 903e a89a 23be 7500 bd3d
000000b0: 4ac3 3f3e 86c8 1a3e 45ab 053e 82c8 6a3d
000000c0: 69aa c6ba 878d 22bd 5008 10be 3cf8 3ebd
000000d0: 72d5 78be 076c 03be 3e14 0f3e ecd2 c5bc
000000e0: 5072 d53d 0017 633c fe1f 5b3e 256a 28be
000000f0: 4232 86bd 8c54 15be bad6 693e e193 ecbd
00000100: 453f 99bd 08e4 58bb 2c28 82be 5a0a 84be
00000110: a9bc f2bd 9a93 1cbe b1e1 643e 3891 e7bd
00000120: 119c 5cbe 6712 e03d 82f0 03ba e437 06be
00000130: d3ae 623e 00e0 82be 747c fdbd 74ed 173e
00000140: a39b fb3d 51cd 8dbe 9959 283e ef5a 8b3e
00000150: c76f 02be c766 5cbe 37e5 463e 103b 4d3e
00000160: 5e86 f0bd b361 7bbe 0028 c73d af40 66be
00000170: 23cc 81be 7b12 223e 1f75 5a3e 5d22 11bd

head.bias f4 [3]
-0.2240754 0.21571389 0.206708
00000000: 0674 65be 1ae4 5c3e 43ab 533e
